adversarial_model.pth (torch, 61343 bytes, 20 tensors)

layer1.0.weight f4 [128, 15]
00000000: 878c e53e 0fa4 f9bd deb2 123f 6a04 c5be
00000010: 146e 86be 2d81 c43d 8de7 af3d e151 95be
00000020: 3945 fa3d 24d9 5d3c 54c3 e4bd 6cb4 863e
00000030: fdf5 dabe 19c5 c5bd 3b6e 333d d0bb 78bd
00000040: 3d2d 473e 706d 68bf 9b3b a9bc 70fd 24bc
00000050: 9c79 b93e f7dd 52be 0287 3d3e b802 50bc
00000060: 3991 7ebe 37ab 313e 250f 9bbe cbc3 893e
00000070: f0b0 17bd 23d6 70bb d110 3d3e 5e2d 513e
00000080: 7625 1cbe 993b 883e 97ea e4bd 650b 8ebd
00000090: 6f07 81bd 7259 7b3d 4520 94be 4945 f4bd
000000a0: a65d 1c3e 9f29 a73e 2364 05be 93e2 a83c
000000b0: 39f4 cd3d 5f66 e13e 3d4d 533e 6719 403f
000000c0: 8f2f d9bc 8457 80be 5411 42bd 43e8 1e3e
000000d0: 3d21 013d fb4f 9b3d ec23 88be d3b3 2f3e
000000e0: 1cc5 0e3f a8e5 f83d cb23 ef3d a883 503e
000000f0: 68a0 013f b05a 7abe b1f2 2f3d 47f3 d13e
00000100: f535 41be 92bc 0abe 2807 1cbe 4804 e1ba
00000110: 783f 07bc 469c 143d 0c96 f53e 6558 0f3e
00000120: 8c65 6abe a8fc e8bd a8c9 b93c a3dc d23d
00000130: 74b0 213e 57af 19bf 8d94 c7be b630 85bd
00000140: 5846 42bd 083a 0b3e 9e51 3b3e df22 d4be
00000150: d72b 93bd bfb6 adbe 881d 7bbd 1f58 5fbf
00000160: 8624 d0bd d886 303e d935 1cbe a898 67be
00000170: 49b5 7ebf cbeb 4abe 06a4 44bd bce2 9bbb
00000180: 8529 c53e 4ec0 773e 6344 afbe 84dd 0f3e
00000190: 6f3b cf3e edf9 a0be 02c0 4bbe f6b6 6d3e
000001a0: d2cf c33e c7df 373e 4d6f 673d cc41 d83a
000001b0: 0f0b a5be bc89 903e b4e5 73be 8c1d e13d
000001c0: f485 1e3f 311b 0e3e d5bc a23b aceb 993c
000001d0: 55db 34be 90d0 293d 9ac6 35bf 37a2 a53d
000001e0: 728e aa3e 9255 c3be a0af 043e 5806 bcbb
000001f0: 9f1c c03b 39e0 ca3e 54ad c1bc 45d9 05be
00000200: f5f8 563e 977d 463e c95a 86bc 3bd6 f63d
00000210: f54c 5f3e 0f1f 8d3d c8bc e5bd d780 a33c
00000220: af7e 56be b706 0fbf 2387 b83e 23ac 9d3b
00000230: b520 50bf c55d 4d3e 5089 0b3d 55e9 213d
00000240: 2028 d53c 775a b93d efdc e5bd 3283 28be
00000250: 974f 9d3e 7cd9 39be 7869 2f3d ec45 1d3e
00000260: 3ae1 8e3d 8ec0 bc3d 9ef7 553e b529 363d
00000270: a6c4 5fbe 4037 dabe f954 95be af23 d2bd
00000280: 7347 803d 4f9e 04bd 631e cf3c 3e9c 5c3f
00000290: bada de3d 3e39 a3bd 738d 073e fe1a 61bf
000002a0: 2c50 e43d a3e1 583e 94b9 5fbe 5fcb e33d
000002b0: e76b 7bbe 5ed3 83bd 3180 2fbd 4370 b43e
000002c0: dc4c 803d 025a 0abf 202e 0c3f 0365 b1bc
000002d0: be27 b4be 2148 f6ba d3fa 91bf f112 d33d
000002e0: 3940 ba3c 536c c83e d94e afbd 350d d73e
000002f0: 16b4 57bd d12c 7cbe ae10 a4be 3247 0dbf
00000300: 0100 a3bd 226e 883e 45fa 493d aaa0 eebd
00000310: 48d8 92be 2f00 e8bf 5c04 0d3e 158e ccbd
00000320: 7334 963d 166d 86be f548 0cbe f0dd 2e3e
00000330: 7a06 913e 63a4 b23e 8675 033e e666 0dbf
00000340: d8cd 073f 3d1c e43c f6ba 28bf 3a67 1abe
00000350: f3bd df3d 370a a73d 994f 7d3e f860 ac3e
00000360: fb1a 1b3e e421 9ebd 2144 d53d 4a20 623e
00000370: df3f 313d 2a73 333e cff0 debe 8558 1f3e
00000380: f03d 473e 35d2 c4be 61a0 b9be 0556 eabe
00000390: 1385 61be a445 ab3c bcf8 113d b3d0 48be
000003a0: a3c6 c53c 84cb c5be 949a 033d d357 da3d
000003b0: d2e6 3fbd ef95 bf3d b34d a3bd f2ec 10be
000003c0: 53cc 263e f8c4 fd3d df66 c8c0 9b69 093f
000003d0: 3eb1 713e e21c bd3e d3a6 35be b80d 0e3e
000003e0: 482b 8c3e ecca 32ba 03df 95bd 7bf7 6bbe
000003f0: 7dfc 94be d347 db3d 7991 323e 95ff b73e
0.44833776 -0.12189495 0.5730418 -0.3847993 -0.26255858 0.09594951 0.08589087 -0.2916403
0.122202344 0.01354054 -0.111700684 0.26309526 -0.427658 -0.09656734 0.043806296 -0.060725987
0.19450851 -0.9079199 -0.020658305 -0.01007019 0.36225593 -0.20592485 0.18508533 -0.012695961
-0.24860086 0.1735047 -0.30284992 0.2690719 -0.037033975 -0.003674873 0.18463446 0.20427462
-0.15248665 0.2660797 -0.11177557 -0.06935767 -0.06300246 0.0613646 -0.2893087 -0.119272776
0.15270099 0.32648942 -0.1302648 0.020615852 0.100563474 0.44023415 0.20634933 0.7503876
-0.026511936 -0.2506677 -0.047379807 0.15518288 0.03152584 0.075836144 -0.26589906 0.17158441
0.55769515 0.121531785 0.11676749 0.20362723 0.50635386 -0.24448657 0.042956058 0.41005918
-0.18868239 -0.13548496 -0.15237105 -0.0017167414 -0.008254878 0.036281846 0.4796604 0.13998564
-0.228903 -0.11376315 0.022679165 0.10295989 0.15789968 -0.6003317 -0.38980523 -0.065034315
-0.047430366 0.13596356 0.18292853 -0.41432855 -0.07186096 -0.33928487 -0.06130746 -0.8724384
-0.10163216 0.17238939 -0.15254916 -0.22616827 -0.9949537 -0.1981651 -0.048007987 -0.0047572535
0.3850824 0.24194452 -0.34231862 0.14049345 0.40475032 -0.31440678 -0.19897464 0.23214325
0.38244492 0.17956458 0.05650263 0.0016499101 -0.32235 0.28230083 -0.23818094 0.10991964
0.61923146 0.1387756 0.004966358 0.018789135 -0.17661794 0.041458666 -0.71006167 0.08087581
0.33311802 -0.38151222 0.1295762 -0.005738061 0.005862787 0.39624193 -0.02364222 -0.13071163
0.20993407 0.19383846 -0.016400712 0.1205258 0.218067 0.068906896 -0.11217648 0.019958897
-0.20946763 -0.5586962 0.360406 0.00481178 -0.81299907 0.20055301 0.0340665 0.039529163
0.02602011 0.09050458 -0.1122378 -0.16456297 0.30724785 -0.1814937 0.042825192 0.15358704
0.06976552 0.092164144 0.2089524 0.04447337 -0.21852359 -0.42620277 -0.29166391 -0.10260712
0.06263628 -0.032377537 0.025283044 0.86175907 0.108815625 -0.079699025 0.13237552 -0.8793181
0.11148104 0.21179824 -0.21848136 0.11122774 -0.2455288 -0.064367995 -0.042846862 0.352419
0.0626466 -0.5404359 0.5475788 -0.021654611 -0.3518657 -0.0018789807 -1.140467 0.10306347
0.022735702 0.39145145 -0.08559961 0.42002264 -0.052661978 -0.24626471 -0.32043976 -0.5518676
-0.07958985 0.26646525 0.04931094 -0.11651738 -0.28680634 -1.8125056 0.13771194 -0.099880375
0.07334223 -0.262551 -0.13699706 0.1707685 0.28325254 0.34891042 0.128378 -0.55235136
0.5304847 0.027845496 -0.6591028 -0.1507844 0.10924902 0.08156245 0.24737395 0.3366773
0.15147011 -0.07721308 0.10413385 0.2208263 0.043273803 0.175244 -0.43543097 0.15561111
0.19457221 -0.38441625 -0.36255172 -0.45768753 -0.2202342 0.02090723 0.035637602 -0.19610862
0.024142569 -0.38631833 0.03212984 0.106612824 -0.046850987 0.093547694 -0.07973804 -0.14152887
0.16288881 0.123910844 -6.2625575 0.53676766 0.23602769 0.36936098 -0.1773942 0.13872421
0.2737677 -0.0006820399 -0.07317927 -0.23043625 -0.29098883 0.10707059 0.17438306 0.3593718

layer1.0.bias f4 [128]
00000000: d361 fa3c b5cc bb3e 6e23 2a3d 88ce 5ebd
00000010: cf37 f43c a9e7 5d3e c6ca b23d 0231 9fbe
00000020: d182 8bbe a42f 4f3d d970 e13d 0fb5 a8bd
00000030: 5976 c0bd f91f 27be ddbc 1f3b b394 74bd
00000040: 6d1f ae3d a54f 37be 139e 063e d0b3 b43d
00000050: 37f1 adbd 6ed4 db3d 72a9 533e 81be b7bd
00000060: aabf d33d 9c9a 87bd 3ae8 ea3d da0c 93be
00000070: 2114 0e3e e84a c43e c6bb c63d 0518 373e
00000080: 42b2 9cbd 55be 69be 11ff 55bd 167f 623e
00000090: 7178 8fbe 1946 3fbe 14cd adbe 7cf5 ee3d
000000a0: 486a 613d 9342 8fbe 6b0a 11bd 0437 02be
000000b0: a47f c5be 87ec 623d e236 173d 47c4 44be
000000c0: 7a16 a1bd 3b76 31bd 13ee 3cbe 5df6 84bb
000000d0: f569 083e 25c6 4f3e 87ee 2d3e 3029 8dbe
000000e0: b853 4e3d ef08 20be c022 803d b2ad 0cbe
000000f0: f58e 3abe cdb6 bcbd 8c47 90bc a569 223a
00000100: 3c13 86be 4822 4abe be0c ac3d f0ba 0c3e
00000110: ac6c 773d c4dd fdbc 77fa c2bc b47c a4be
00000120: acb8 a7be f2c5 df3d e427 433d df80 eb3d
00000130: 3372 033c 05f1 25be b339 df3d 9054 213e
00000140: 0ef5 5a3d d7cc 15bd a24f 5fbe 9f91 b33c
00000150: 8c06 183e 88f4 92bc a4d6 3bbe 8daf 863d
00000160: 65fa 9a3d f378 033d 46b7 75bd 956c 353e
00000170: 50aa 3a3e 7478 993d ea00 293e fa49 763c
00000180: 16aa 863e 17ca 33bd a688 5f3e 9e0d 873e
00000190: 92c3 713e da5f 9a3c 6712 203e 7ad6 993d
000001a0: e8dc 86bd fb2e 393c 06f5 2d3e 6ffa 263e
000001b0: f0d6 413e 0d8b f83b 2be2 8ebe b2bc e8bc
000001c0: 1229 debc cee8 54be 90be cc3b ad24 1cbe
000001d0: d8b3 8ebe 1671 493d 36c9 5ebc 5e29 a9be
000001e0: e2e3 fc3d 9274 193c 9a04 4cbe 1c44 c8be
000001f0: ba95 76be 3be8 24bd cbba 593e 7aa1 413e
0.030564224 0.36679617 0.041537695 -0.054396182 0.029811768 0.21670403 0.08730082 -0.31092077
-0.27248242 0.050582543 0.11007852 -0.08237659 -0.09397573 -0.1632079 0.0024374046 -0.059712123
0.08502088 -0.17901476 0.13146238 0.08823359 -0.08493274 0.10733877 0.20670107 -0.089718826
0.103392914 -0.06621286 0.11470075 -0.28720742 0.13874866 0.383384 0.09703784 0.17880256
-0.076511875 -0.22826512 -0.052245203 0.22118792 -0.28021577 -0.18679084 -0.33945525 0.11667916
0.055033 -0.2798048 -0.035410326 -0.127163 -0.38573945 0.05540135 0.036917575 -0.19215499
-0.07865615 -0.043325644 -0.18450193 -0.004057689 0.1332167 0.2029043 0.16985522 -0.27570486
0.05037281 -0.15628408 0.06256628 -0.13738135 -0.18218596 -0.09214554 -0.017612241 0.0006195552
-0.2618655 -0.1973964 0.08400868 0.13743186 0.060406372 -0.030989535 -0.023801072 -0.3212639
-0.3275808 0.10926427 0.047645465 0.114991896 0.008022833 -0.16205223 0.10899677 0.15754914
0.05345636 -0.036572304 -0.21807721 0.021920023 0.14846247 -0.017938867 -0.18343598 0.065764524
0.0756729 0.032097768 -0.059989236 0.17717202 0.18229032 0.07493678 0.16504255 0.015032286
0.2630164 -0.0438939 0.21829471 0.26377577 0.2360976 0.018844534 0.1563202 0.07511611
-0.06585103 0.011302705 0.16988 0.1630647 0.18929648 0.0075849355 -0.27906927 -0.02841029
-0.027119193 -0.20791933 0.0062483028 -0.15248366 -0.27871585 0.049180113 -0.013597777 -0.33039373
0.12348153 0.009366171 -0.1992363 -0.39114463 -0.24080554 -0.040260535 0.21262662 0.18909255

layer1.1.weight f4 [128]
00000000: 9465 823f 6e7c 853f daf5 0d3f 98dc ad3f
00000010: ae83 8b3f 56ec 923f 2e1d 773f a3cd a93f
00000020: 9d56 763f d928 9a3f 565d 8f3f 8bd7 783f
00000030: a9b7 9b3f f185 753f f8f9 913f 340a 563f
00000040: 3d66 953f 3817 a53f b571 733f 15a3 8f3f
00000050: fa0e 453f 8f8a b03f 2324 7f3f 897b a43e
00000060: 5e24 973f 747a b63f 3a9c 923f 2ad7 643f
00000070: 1766 573f 1eb8 a53f b4f6 5b3f eb6d 693f
00000080: b81f 5f3f eb7e a83f f43f 963f 6524 8a3f
00000090: f571 8d3f 6954 553f 4e3c 8f3f 75a6 b53f
000000a0: 6606 403f acde ab3f cb84 9b3f 1ae7 4b3f
000000b0: 68d8 593f 6098 533f 54ee 693f e467 b63f
000000c0: c7b1 873f 01ee 723f afa5 8c3f f623 833f
000000d0: 28a0 0e40 d542 ac3f c0b0 3c3f fea5 9a3f
000000e0: 98ff 823f 332a 953f a025 7d3f 3bea 7d3f
000000f0: 01b2 893f 037e 4e3f 4731 0e3f be7c 8d3f
00000100: a1fe 9b3f 1117 ab3f e6c2 593f f6ac 813f
00000110: 9fa4 1f3f 4c79 653f dc7f a53f 5167 9f3f
00000120: 3d56 8c3f 2c6e 893f 67dd 473f 100a 6f3f
00000130: 78b6 a73e 6bbd 6a3f ca74 5e3f 4212 963f
00000140: 1d11 203f 7f6c 333f 8ea7 903f 2835 813f
00000150: c28f 863f 012e 833f 86a1 d73f 01e2 9e3f
00000160: 819f 8f3f 1a32 8d3f d242 3e3f 5be5 563f
00000170: 9e64 a13f 60f0 9e3f bdcc 473f f602 883f
00000180: ca23 8f3f 8527 613f dd20 d33f 2382 5d3f
00000190: 0cbc 953f f01c 8b3f ac11 883f 2d7a 663f
000001a0: 0677 a83f 5af8 7e3f 430d b33f 301a 923f
000001b0: 9a2f 863f 4528 aa3f de2b b83f c8b6 9b3f
000001c0: 5b7e be3f 2a14 8d3f a1d3 643f 0f65 4d3f
000001d0: a318 bd3f ff8d ad3f 6f51 5f3f aac7 1c3f
000001e0: eaba 213f 2e35 ab3f ec87 763f 7130 a13f
000001f0: 4825 7c3f ab7f 803f d4cf 993f 6c3f 773f
1.0187249 1.0428598 0.55453265 1.3582945 1.089956 1.1478374 0.965289 1.326588
0.9622591 1.2043716 1.1200359 0.9720389 1.2165424 0.95907503 1.140441 0.8360932
1.1671826 1.2897711 0.9509538 1.1221644 0.7697598 1.3792285 0.99664515 0.321255
1.1807973 1.425612 1.1453927 0.89390814 0.8414015 1.2946813 0.85923314 0.91183347
0.87157774 1.3163732 1.1738267 1.0792357 1.1050402 0.83331925 1.1190279 1.4191424
0.75009763 1.3427329 1.21499 0.7964951 0.85095835 0.8265438 0.91379285 1.4250455
1.0601128 0.94894415 1.0988063 1.024535 2.2285252 1.3457896 0.737072 1.2081907
1.0234251 1.1653503 0.98885536 0.9918553 1.0757447 0.8066103 0.5554394 1.1053693
1.2187082 1.3366414 0.85063016 1.0130908 0.62360567 0.8963821 1.2929645 1.2453405
1.0963818 1.0736747 0.7807221 0.9337473 0.327564 0.9169528 0.86896956 1.1724322
0.6252611 0.70087427 1.1301134 1.0094347 1.0512621 1.0248414 1.6846168 1.2412721
1.1220552 1.1030915 0.7432071 0.8394372 1.2608831 1.2417107 0.7804678 1.0625904
1.1182797 0.87950927 1.6494404 0.865267 1.1698012 1.0868206 1.0630393 0.90030175
1.3161323 0.99597704 1.3988422 1.1414242 1.0483277 1.3293539 1.4388387 1.2165155
1.4882311 1.1021779 0.8938542 0.8023233 1.4773144 1.3558959 0.8723363 0.61242163
0.63175833 1.3375604 0.9630115 1.2592908 0.98494387 1.0038961 1.2016549 0.9658115

layer1.1.bias f4 [128]
00000000: 91fc e4bc 7bc2 133e 733b 18be 73b9 80bd
00000010: 5447 26bd 29ad dabc 354a d03b fdd7 e2bd
00000020: ce8b 72bd 3045 a3bd 88c2 ecbd 68b4 15be
00000030: e491 11be d6f7 cbbc 26a2 58be 693e b5bd
00000040: e32e d23d 3a3c 983a df61 b23b 0878 0ebe
00000050: 470a a2bd ec76 13bd 1f5c 32bd 24a7 143b
00000060: 85d4 033c 0f79 ff3c 909b 9abc 674c 90bd
00000070: 684a e1ba b10a 303e 9187 84bc fe0c 133c
00000080: 1a85 173c 435c ccbd fb01 7f3c cf3e 693d
00000090: 6cf5 58bd 964e 2cbd 65d5 b7bd 3927 cfbb
000000a0: 9fb7 40be 3e01 06bd 9e3f 3bbd bc5d 3abd
000000b0: 6a8c 00be f0bd 833b 7870 91bb 985a 50bd
000000c0: c55c 063e a5ac 0bbe ce5f 2bbe c3eb 1fbe
000000d0: e481 173d 73e4 023d 6026 7c3d 8655 debd
000000e0: c896 32be fd69 b6bd 047f 5f3c c6c0 d23d
000000f0: 2beb 1bbe 781e 33be 42cf b33d 00ca 33bc
00000100: 6547 bcbd 64ef 2fbd b7cd babd affd 133e
00000110: 3042 3bbe 771b dabd 80e1 26b7 b54d 88bd
00000120: 2f48 50be 93b0 03be 232c febd e59b ecbd
00000130: 0d14 d0bd bd43 1fbe dea9 c3bd 15c3 8b3d
00000140: dadb 19be 7c41 58bd 136b cebc 8329 0ebe
00000150: 16f8 69bd a9b4 3ebe 03a7 12be ea9a a73c
00000160: d5e0 973d 5178 00be 29f6 c73b b626 abbc
00000170: 4251 c23b 9a08 9b3d 97f5 a7bc 9b94 eebd
00000180: 417e b13c 684d 36be 639b aa3c 3489 3f3d
00000190: f064 9d3d 0f44 a6bc 5e83 b9bc cd1f 4dbd
000001a0: 7d2d 14be 79cd 1939 a56a 48bd 974d 7abd
000001b0: 04f2 c63d a251 0dbc 3156 2fbe 0a4c 9a3d
000001c0: 686c 9cbd a102 43bd 176c 1dbe e3fe 68be
000001d0: 2d06 0cbe 403f 80bd 4d92 a2bd b8d0 c3bd
000001e0: 16a1 a2bd 069e 083e 9142 38be 0afe 03be
000001f0: 6c29 29bd fd0f 2abd 51a9 483d 224c 3b3d
-0.027952464 0.14429657 -0.14866428 -0.06285372 -0.040595368 -0.026693897 0.0063565024 -0.11076353
-0.05921536 -0.07972181 -0.115605414 -0.14619601 -0.14215809 -0.02489845 -0.21155605 -0.088497944
0.10262849 0.0011614629 0.005443796 -0.13912976 -0.079121165 -0.036002085 -0.043544885 0.0022682631
0.008046274 0.031185655 -0.018873006 -0.070458226 -0.0017188312 0.17191578 -0.016177924 0.008975266
0.0092480425 -0.09978535 0.015564437 0.056944665 -0.052968428 -0.042067133 -0.08976249 -0.0063218144
-0.18820046 -0.03271603 -0.045714967 -0.04549955 -0.12553564 0.004020445 -0.004438456 -0.050867647
0.13121326 -0.13640077 -0.16735765 -0.1561728 0.036989108 0.031956147 0.061560035 -0.10856156
-0.17440331 -0.089069344 0.013641123 0.10290675 -0.15226428 -0.17492092 0.08779766 -0.0109734535
-0.09193305 -0.04295291 -0.09121268 0.14452241 -0.18286967 -0.1064977 -9.946874e-06 -0.066554464
-0.20340036 -0.12860326 -0.12410762 -0.11553172 -0.101600744 -0.15553184 -0.09553884 0.06824318
-0.15025273 -0.052796826 -0.025197541 -0.13883023 -0.05712136 -0.18623604 -0.14321522 0.020459611
0.0741593 -0.12545897 0.0061023426 -0.020892482 0.005930097 0.0757 -0.020502849 -0.11649438
0.021666648 -0.17802966 0.020826047 0.046761706 0.07685268 -0.020296125 -0.022645649 -0.050079156
-0.14470477 0.00014667762 -0.04892983 -0.06110915 0.097141296 -0.00862542 -0.17122723 0.075340346
-0.07637864 -0.04760993 -0.15373264 -0.22753482 -0.13674231 -0.06262064 -0.07938061 -0.09561294
-0.07940881 0.13341531 -0.17994143 -0.12889877 -0.04129927 -0.041519154 0.048989598 0.045726903

layer1.1.running_mean f4 [128]
00000000: 0000 0000 0000 0000 0000 0000 0000 0000
00000010: 0000 0000 0000 0000 0000 0000 0000 0000
00000020: 0000 0000 0000 0000 0000 0000 0000 0000
00000030: 0000 0000 0000 0000 0000 0000 0000 0000
00000040: 0000 0000 0000 0000 0000 0000 0000 0000
00000050: 0000 0000 0000 0000 0000 0000 0000 0000
00000060: 0000 0000 0000 0000 0000 0000 0000 0000
00000070: 0000 0000 0000 0000 0000 0000 0000 0000
00000080: 0000 0000 0000 0000 0000 0000 0000 0000
00000090: 0000 0000 0000 0000 0000 0000 0000 0000
000000a0: 0000 0000 0000 0000 0000 0000 0000 0000
000000b0: 0000 0000 0000 0000 0000 0000 0000 0000
000000c0: 0000 0000 0000 0000 0000 0000 0000 0000
000000d0: 0000 0000 0000 0000 0000 0000 0000 0000
000000e0: 0000 0000 0000 0000 0000 0000 0000 0000
000000f0: 0000 0000 0000 0000 0000 0000 0000 0000
00000100: 0000 0000 0000 0000 0000 0000 0000 0000
00000110: 0000 0000 0000 0000 0000 0000 0000 0000
00000120: 0000 0000 0000 0000 0000 0000 0000 0000
00000130: 0000 0000 0000 0000 0000 0000 0000 0000
00000140: 0000 0000 0000 0000 0000 0000 0000 0000
00000150: 0000 0000 0000 0000 0000 0000 0000 0000
00000160: 0000 0000 0000 0000 0000 0000 0000 0000
00000170: 0000 0000 0000 0000 0000 0000 0000 0000
00000180: 0000 0000 0000 0000 0000 0000 0000 0000
00000190: 0000 0000 0000 0000 0000 0000 0000 0000
000001a0: 0000 0000 0000 0000 0000 0000 0000 0000
000001b0: 0000 0000 0000 0000 0000 0000 0000 0000
000001c0: 0000 0000 0000 0000 0000 0000 0000 0000
000001d0: 0000 0000 0000 0000 0000 0000 0000 0000
000001e0: 0000 0000 0000 0000 0000 0000 0000 0000
000001f0: 0000 0000 0000 0000 0000 0000 0000 0000
0.0 0.0 0.0 0.0 0.0 0.0 0.0 0.0
0.0 0.0 0.0 0.0 0.0 0.0 0.0 0.0
0.0 0.0 0.0 0.0 0.0 0.0 0.0 0.0
0.0 0.0 0.0 0.0 0.0 0.0 0.0 0.0
0.0 0.0 0.0 0.0 0.0 0.0 0.0 0.0
0.0 0.0 0.0 0.0 0.0 0.0 0.0 0.0
0.0 0.0 0.0 0.0 0.0 0.0 0.0 0.0
0.0 0.0 0.0 0.0 0.0 0.0 0.0 0.0
0.0 0.0 0.0 0.0 0.0 0.0 0.0 0.0
0.0 0.0 0.0 0.0 0.0 0.0 0.0 0.0
0.0 0.0 0.0 0.0 0.0 0.0 0.0 0.0
0.0 0.0 0.0 0.0 0.0 0.0 0.0 0.0
0.0 0.0 0.0 0.0 0.0 0.0 0.0 0.0
0.0 0.0 0.0 0.0 0.0 0.0 0.0 0.0
0.0 0.0 0.0 0.0 0.0 0.0 0.0 0.0
0.0 0.0 0.0 0.0 0.0 0.0 0.0 0.0

layer1.1.running_var f4 [128]
00000000: 0000 803f 0000 803f 0000 803f 0000 803f
00000010: 0000 803f 0000 803f 0000 803f 0000 803f
00000020: 0000 803f 0000 803f 0000 803f 0000 803f
00000030: 0000 803f 0000 803f 0000 803f 0000 803f
00000040: 0000 803f 0000 803f 0000 803f 0000 803f
00000050: 0000 803f 0000 803f 0000 803f 0000 803f
00000060: 0000 803f 0000 803f 0000 803f 0000 803f
00000070: 0000 803f 0000 803f 0000 803f 0000 803f
00000080: 0000 803f 0000 803f 0000 803f 0000 803f
00000090: 0000 803f 0000 803f 0000 803f 0000 803f
000000a0: 0000 803f 0000 803f 0000 803f 0000 803f
000000b0: 0000 803f 0000 803f 0000 803f 0000 803f
000000c0: 0000 803f 0000 803f 0000 803f 0000 803f
000000d0: 0000 803f 0000 803f 0000 803f 0000 803f
000000e0: 0000 803f 0000 803f 0000 803f 0000 803f
000000f0: 0000 803f 0000 803f 0000 803f 0000 803f
00000100: 0000 803f 0000 803f 0000 803f 0000 803f
00000110: 0000 803f 0000 803f 0000 803f 0000 803f
00000120: 0000 803f 0000 803f 0000 803f 0000 803f
00000130: 0000 803f 0000 803f 0000 803f 0000 803f
00000140: 0000 803f 0000 803f 0000 803f 0000 803f
00000150: 0000 803f 0000 803f 0000 803f 0000 803f
00000160: 0000 803f 0000 803f 0000 803f 0000 803f
00000170: 0000 803f 0000 803f 0000 803f 0000 803f
00000180: 0000 803f 0000 803f 0000 803f 0000 803f
00000190: 0000 803f 0000 803f 0000 803f 0000 803f
000001a0: 0000 803f 0000 803f 0000 803f 0000 803f
000001b0: 0000 803f 0000 803f 0000 803f 0000 803f
000001c0: 0000 803f 0000 803f 0000 803f 0000 803f
000001d0: 0000 803f 0000 803f 0000 803f 0000 803f
000001e0: 0000 803f 0000 803f 0000 803f 0000 803f
000001f0: 0000 803f 0000 803f 0000 803f 0000 803f
1.0 1.0 1.0 1.0 1.0 1.0 1.0 1.0
1.0 1.0 1.0 1.0 1.0 1.0 1.0 1.0
1.0 1.0 1.0 1.0 1.0 1.0 1.0 1.0
1.0 1.0 1.0 1.0 1.0 1.0 1.0 1.0
1.0 1.0 1.0 1.0 1.0 1.0 1.0 1.0
1.0 1.0 1.0 1.0 1.0 1.0 1.0 1.0
1.0 1.0 1.0 1.0 1.0 1.0 1.0 1.0
1.0 1.0 1.0 1.0 1.0 1.0 1.0 1.0
1.0 1.0 1.0 1.0 1.0 1.0 1.0 1.0
1.0 1.0 1.0 1.0 1.0 1.0 1.0 1.0
1.0 1.0 1.0 1.0 1.0 1.0 1.0 1.0
1.0 1.0 1.0 1.0 1.0 1.0 1.0 1.0
1.0 1.0 1.0 1.0 1.0 1.0 1.0 1.0
1.0 1.0 1.0 1.0 1.0 1.0 1.0 1.0
1.0 1.0 1.0 1.0 1.0 1.0 1.0 1.0
1.0 1.0 1.0 1.0 1.0 1.0 1.0 1.0

layer2.0.weight f4 [64, 128]
00000000: 11d0 a1bc af8c 81bd 9d05 a23d 1fd8 2a3e
00000010: 4055 3d3e bc5e 83be 6bf5 09be 63a6 ff3b
00000020: cd53 39be 45fd cabd 4c82 4abe 4e01 aebd
00000030: 1803 cc3d 83d8 553c 17a4 123d a8b9 89bc
00000040: 9a50 2cbe 909c 80be cf37 29be 9819 b33e
00000050: 854a 413d 216c 1ebd 29d6 ce3c 73f0 313d
00000060: d129 333e ce5a 053e 5ad0 31ba 3379 6d3d
00000070: d872 083e aeba 7b3d 9f0e 34be 84c1 4dbe
00000080: ed94 dcbd e337 8e3d ce35 be3e eaaa 07be
00000090: e03a 2dbe f498 a3bc b560 203e cfb5 cc3d
000000a0: 7ced 363d d8dc edbc ec92 68bb 84c0 573d
000000b0: 6062 283e 1812 e9bd 8833 2c3d 265d 5d3d
000000c0: f386 293d ec69 ab3c d281 7e3e 3316 3f3e
000000d0: 83e2 d1bd 6829 923d 96b9 043c dcd6 d43d
000000e0: cf17 003d e965 ea3c 0898 9c3e 0d04 b93e
000000f0: 41b0 4e3e 2600 e13d ddeb df3c 512c 233e
00000100: 2542 0e3e 6842 923d f85a d5bc f633 1dbd
00000110: 81b6 74bd 1dfa 51be 2ac9 5c3e 11d3 053e
00000120: 5c7e 2dbe a81b 5abe 156e 27bd 9287 913d
00000130: 1047 a9bd 0c2b a4be a128 f1bd 6d58 5a3b
00000140: 56b7 9d3d 81f0 613d 560c 903e 3408 f43c
00000150: 2f49 0e3e 4ade 22be 8424 aa3d efc0 883d
00000160: fac3 55be aaab 50be 6671 d2b9 1e01 923d
00000170: b025 03bf 0011 8e3e b05b 2c3e 1360 82bd
00000180: cbaf 96be 25b9 88be ca34 6a3e 94ac 403c
00000190: 334f 3cbe e741 14be e03a 91bd e1e0 b0bd
000001a0: 8afc 603e 6434 15be 9fd5 46bd a665 a1be
000001b0: 3d1e 04be a78f b0bd ca6b 42be 2630 cfbd
000001c0: 3bb3 0b3e 520d 40be 9216 873d 6c7d 7a3e
000001d0: eb10 1fbc ee44 87be a145 1cbe a6e9 4abe
000001e0: a3ef e9bd 8d27 de3c d125 c2bd bba3 083e
000001f0: 60e7 9b3d 4237 fbbd 385e f8bc d122 64bd
00000200: 0e01 82be 4ae4 48be 79f0 d33a eb49 bcbe
00000210: 0b60 03be f072 0c3e c63a 11be ca07 b63d
00000220: f5f6 fa3c 87e6 3bbe a167 2abc 0b58 d13d
00000230: 316d 1c3d adfb 08bd 1045 b43e 058c 6fbe
00000240: 72f4 e9bd 62c4 9fbd b645 233d 2b53 643e
00000250: 0433 c13d 57a4 143e 3519 82be 5b45 d5bc
00000260: bce2 1ebe 21f0 a3bd 8995 003c f879 4dbe
00000270: 4608 61bd b51c f5be 8bf2 90bd f7d6 38be
00000280: c2b2 21be e41d 3ebe 447d 8dbe a4b2 463d
00000290: 16a5 5ebd 968e 5fbe fb9e a6bd 22b9 d53d
000002a0: 6a3b 48bd e2d9 12be 8101 acbe 7713 3cbb
000002b0: 8459 a03c 10e4 e43c 028c f53d 67b5 043f
000002c0: 295e 83be d7f7 36be a1ae cfbc 893e 163a
000002d0: 5230 633e 552a 323d e67f 013e 2336 833d
000002e0: abc5 aabd c6df 6bbe 0242 33be 0d23 073c
000002f0: b8b0 a13e e287 833d 7c89 4d3d 4779 dc3d
00000300: 324e 07be 126f e93c 941a 5bbe 10e6 b2be
00000310: e40d 403b 0cae 10be 4a54 34bd 989d d0bd
00000320: d36a c1bd c5f2 13be 9864 1fbd 6d5a bbbc
00000330: c55d 8d3d e080 be3d 9bad 41be e452 253d
00000340: 75f4 2f3d 42bd 78bd 06a6 9cbe d7b1 ccbd
00000350: 418a 91be c277 61be 38e5 0f3f 050a 01be
00000360: 3efe 8dbd ad8f d53d d84c 9dbd e53d 49be
00000370: 1827 3a3d ad47 78be f798 3ebe 7047 8a3d
00000380: 60ce 0f3e 2a5e 01bd 6cf4 86be 15e3 15bd
00000390: d75e 3b3e 5c15 3d3d ceef fc3c 45e9 88be
000003a0: 5687 293d e2d8 cbbe 5fd5 783e 30be 40be
000003b0: 67e7 7ebe 18c9 693e 57eb 373d 963c c9be
000003c0: a0a0 bf3e a88b 8d3d a01d 9fbd 6370 ccbd
000003d0: fe42 c13e af26 38bd 762c 81be 9827 373e
000003e0: 510d ebbc 8ac4 02bf cdbc 0b3d 9a84 ee3c
000003f0: 2e2d bfbe 6a8e a0be b879 313d ea34 c0be
-0.019752534 -0.063256614 0.07911227 0.16684006 0.18489552 -0.25658214 -0.13472526 0.0078018173
-0.18098374 -0.099115886 -0.19776267 -0.084963426 0.099615276 0.013052109 0.03580102 -0.01681216
-0.16827622 -0.25119448 -0.16525196 0.34980464 0.047190208 -0.03867734 0.025248604 0.0434422
0.1749642 0.1302292 -0.0006783061 0.057976913 0.1332506 0.06145733 -0.17583703 -0.20093352
-0.10770593 0.06944253 0.37150425 -0.13248792 -0.1691699 -0.019970395 0.15661891 0.09995615
0.044660076 -0.02903597 -0.0035487963 0.05267383 0.16443777 -0.11380404 0.04204133 0.05404391
0.041388463 0.02092453 0.2485421 0.18660812 -0.10248282 0.07136804 0.008100888 0.10392544
0.031272706 0.028613048 0.3058474 0.36135903 0.20184423 0.109863564 0.027334148 0.15934874
0.1389242 0.07141572 -0.026044354 -0.038379632 -0.05974436 -0.20505567 0.21561113 0.13068797
-0.16942734 -0.21299613 -0.040876467 0.07105936 -0.08265507 -0.32064092 -0.117753275 0.0033316866
0.07700984 0.055161003 0.28134412 0.029789068 0.13895105 -0.15905109 0.08307746 0.06677424
-0.2087554 -0.20377985 -0.0004013881 0.07129119 -0.5122938 0.27747345 0.16831851 -0.06365981
-0.29430994 -0.26703754 0.228717 0.011759896 -0.18389587 -0.14478265 -0.07091308 -0.08636642
0.21971336 -0.14570767 -0.04854357 -0.31522864 -0.1290216 -0.086211495 -0.18986431 -0.101166055
0.1364259 -0.18755081 0.06596102 0.24461907 -0.009708623 -0.26419777 -0.15260936 -0.19815692
-0.1142266 0.027118469 -0.09479869 0.13343708 0.07612491 -0.12266399 -0.030318365 -0.055697266
-0.2539143 -0.19618335 0.0016169689 -0.36775145 -0.12829606 0.1371572 -0.14182577 0.088882044
0.030635336 -0.18349658 -0.010400684 0.10221871 0.03819007 -0.03344314 0.3520894 -0.23393257
-0.11423577 -0.07801129 0.039861403 0.22297351 0.094335586 0.14515816 -0.25409856 -0.026034048
-0.1551618 -0.08004785 0.007848152 -0.20066059 -0.05493953 -0.47873464 -0.070775114 -0.18050753
-0.15790847 -0.1856609 -0.27634633 0.04851021 -0.054356657 -0.21831736 -0.08135792 0.10435702
-0.048884787 -0.14340928 -0.33594897 -0.0028698125 0.019573934 0.02794078 0.11989595 0.518393
-0.25657776 -0.17867981 -0.025351824 0.00057313644 0.22186401 0.043497402 0.12646446 0.0640681
-0.083384834 -0.23034582 -0.17505649 0.008248103 0.31580138 0.06422402 0.050179943 0.10765319
-0.13213423 0.028495345 -0.21396858 -0.3494115 0.0029305154 -0.14128894 -0.044025697 -0.101863086
-0.09444203 -0.14448078 -0.038914293 -0.022870267 0.06902651 0.09301925 -0.18913881 0.040362254
0.04295774 -0.060727365 -0.30595416 -0.09994858 -0.28425792 -0.2201834 0.56209135 -0.12601478
-0.069332585 0.104277946 -0.076806724 -0.19652517 0.04544744 -0.24246092 -0.18613039 0.06751907
0.1404357 -0.031583942 -0.26358354 -0.036593515 0.18297897 0.046162948 0.030876067 -0.2674047
0.041388832 -0.39813906 0.24300145 -0.18822551 -0.2489296 0.22830617 0.044902172 -0.39304036
0.37427235 0.06911403 -0.077693224 -0.099823736 0.37746423 -0.044958767 -0.25229234 0.17886198
-0.028692873 -0.51081145 0.0341156 0.029115964 -0.37339157 -0.31358653 0.04332897 -0.3754037

layer2.0.bias f4 [64]
00000000: 7681 22be 0dc7 c0bd 4a18 08bd 256c 94be
00000010: 3f02 063d e09d 08bb af20 a83d 68ee e13b
00000020: c88d 523d 5c28 68bd f7df bc3d 2449 1cbe
00000030: 893d a5bd f916 90bd 3a3f f5bd 75cd 3dbe
00000040: d1cc 81be f1cd 1abe cb37 023e 8611 43bd
00000050: c110 363d 8008 a8bd 7f39 523c 8436 9a3c
00000060: e245 03bd 3073 adbd 7090 cb3d 4851 fe3c
00000070: 72fd aabd 05a2 68bd 1606 f93d e1f1 85bd
00000080: 2c91 d73c 8a1c a5bd 2494 38bb 1937 18be
00000090: 3e6a 3dbd aedf febd 3667 b63d 950e f8bc
000000a0: 80a0 0e3e 0b61 bbbd bb85 cbbd f905 aabd
000000b0: 7433 093e 8c92 423d b55d d93b d01b db3d
000000c0: 085c 843d 93fb fbbd bf20 0cbb 0b54 5cbe
000000d0: dfbd 963d 5264 df3b c596 94bd ad4e 1fbc
000000e0: 7da1 b33d c302 46be e533 54ba c0a2 4dbe
000000f0: b273 a1bd 5e34 113d 0300 513d 03d7 3dbe
-0.15869698 -0.09412966 -0.03322629 -0.28988758 0.032716986 -0.0020846054 0.08209359 0.0068948753
0.051404744 -0.056679115 0.092224054 -0.15262276 -0.080683775 -0.07035632 -0.1197495 -0.18535407
-0.25351575 -0.15117623 0.12716596 -0.047624134 0.04444957 -0.08204746 0.012831091 0.018824823
-0.032049067 -0.08469236 0.09939659 0.031044617 -0.08349122 -0.05679514 0.12159364 -0.06540275
0.02631434 -0.08062084 -0.002816447 -0.14864768 -0.0462439 -0.12445007 0.08906405 -0.03028039
0.13928413 -0.09149369 -0.099376164 -0.083019204 0.13398534 0.04750304 0.006633485 0.10698664
0.06462866 -0.12303843 -0.0021381823 -0.21516435 0.07360434 0.006817379 -0.072553195 -0.009723348
0.08771036 -0.19336991 -0.0008094891 -0.20081615 -0.07883395 0.035450332 0.0510254 -0.18539052

layer2.1.weight f4 [64]
00000000: cd2a 723f 9f5c ae3f df06 7b3f daa8 a93f
00000010: c2b8 903f 92a0 6e3f 415a c43f c5d2 743f
00000020: b278 bb3f e2cb 7b3f 0a7d 7b3f 6326 b13f
00000030: b218 9b3f 8f48 983f f96f 973f 9b26 7e3f
00000040: bb82 993f 890f 343f d0ad 8c3f 328e 813f
00000050: 19d7 9e3f eb1f b03f 16d7 8f3f 3053 9d3f
00000060: 2b29 a13f 643f 823f 9bac 883f 34cc 8b3f
00000070: 5df7 833f e6bb ac3e 9375 773f b35d 0c3f
00000080: fcb0 403f 58f3 853f a7cd 8e3f 8cfd 9e3f
00000090: 2ed0 783f 1b2d 453f 15d7 703f cb93 713f
000000a0: ac38 a53f caeb 903f 8343 8c3f 1292 4a3f
000000b0: e669 8e3f ed2e b43f 9d39 883f 17ed 4d3f
000000c0: 2f71 8e3f 1dda 853f cc35 a63f c2d3 903f
000000d0: c49e 903f 9d3f 863f ab82 9e3f 1907 873f
000000e0: f005 933f a2ae 8f3f f471 893f a4f6 933f
000000f0: 5670 8f3f f80b 883f aa30 8f3f eeec 933f
0.9459656 1.3622016 0.9805736 1.3254654 1.1306384 0.9321376 1.5340043 0.9563411
1.4646208 0.98357975 0.9823767 1.383984 1.2116911 1.1897143 1.1831046 0.9927766
1.1993021 0.70336205 1.0990543 1.012152 1.2409393 1.375974 1.1237514 1.2291012
1.2590688 1.0175595 1.0677675 1.0921693 1.0309864 0.33737105 0.9666378 0.54830474
0.75270057 1.0464888 1.115651 1.2421126 0.97192657 0.7702195 0.9407819 0.9436614
1.290792 1.1321957 1.0958103 0.79129136 1.1126068 1.4076821 1.0642582 0.80439895
1.1128291 1.0457188 1.2985168 1.1314623 1.1298451 1.0488163 1.2383627 1.0549041
1.1486187 1.1225169 1.0737901 1.1559644 1.1206157 1.0628653 1.1186726 1.155668

layer2.1.bias f4 [64]
00000000: ffb4 fbbd 87ef 27be 241c a0bd 5f66 4cbe
00000010: 5c2e e6bc 11d8 99bd e2fc 1b3d 3c19 b73d
00000020: c647 c83c 9804 82bb ab43 c83c be66 cbbd
00000030: 198a 9ebd fef2 e0bd 4e0d 81bd 2f26 debd
00000040: c6e9 85be 19fa b0bd 4c1a 803d a507 323d
00000050: 98d4 43bc 90a9 a2bc c3fc 34bd e489 583d
00000060: fd62 45bd e5b2 cebc 4ae5 ab3d 137d bb3d
00000070: 1016 4ebd ab13 b9bd 0051 553d 2eec 8fbc
00000080: 5cfb 6fbd 0350 10bc 84bd a4bd 687b cfbd
00000090: c6d8 21bd b0ac 0bbe 09b0 b83d 469f 893c
000000a0: c8d3 863d 8249 b8bd f86f 38be 6eca a9bd
000000b0: 7fb3 743d 6ea2 0f3e e37f b53d 69e3 793d
000000c0: 02a6 123d 0c95 91bd 52f1 51bd 3065 81be
000000d0: 8fb0 903d f8de 03ba 1e0a 05be c043 53bd
000000e0: a442 063d 5c9b ebbd cc27 643d 6680 2abe
000000f0: fd36 563c a2da 883d 016a 9c3d e938 5ebe
-0.12290382 -0.16399966 -0.078178674 -0.19960926 -0.028098278 -0.075119145 0.038082965 0.0894036
0.024448287 -0.003967833 0.02444633 -0.09931706 -0.07741184 -0.10983847 -0.06301366 -0.10847127
-0.26154917 -0.08641452 0.06255016 0.04346432 -0.011952542 -0.019856244 -0.044186365 0.052865878
-0.048190106 -0.025231788 0.08393343 0.091547154 -0.05031401 -0.090369545 0.0520792 -0.017568674
-0.058589324 -0.008808139 -0.0804396 -0.1013096 -0.039513372 -0.13640094 0.09017951 0.01679958
0.06583363 -0.089983955 -0.18011463 -0.082905635 0.059741493 0.14026806 0.08862283 0.06100789
0.03580285 -0.071085066 -0.05125553 -0.25272512 0.07064926 -0.00050304784 -0.1299214 -0.051578283
0.032778397 -0.11504242 0.055702016 -0.16650543 0.013074634 0.06682326 0.07637406 -0.21701397

layer2.1.running_mean f4 [64]
00000000: 0000 0000 0000 0000 0000 0000 0000 0000
00000010: 0000 0000 0000 0000 0000 0000 0000 0000
00000020: 0000 0000 0000 0000 0000 0000 0000 0000
00000030: 0000 0000 0000 0000 0000 0000 0000 0000
00000040: 0000 0000 0000 0000 0000 0000 0000 0000
00000050: 0000 0000 0000 0000 0000 0000 0000 0000
00000060: 0000 0000 0000 0000 0000 0000 0000 0000
00000070: 0000 0000 0000 0000 0000 0000 0000 0000
00000080: 0000 0000 0000 0000 0000 0000 0000 0000
00000090: 0000 0000 0000 0000 0000 0000 0000 0000
000000a0: 0000 0000 0000 0000 0000 0000 0000 0000
000000b0: 0000 0000 0000 0000 0000 0000 0000 0000
000000c0: 0000 0000 0000 0000 0000 0000 0000 0000
000000d0: 0000 0000 0000 0000 0000 0000 0000 0000
000000e0: 0000 0000 0000 0000 0000 0000 0000 0000
000000f0: 0000 0000 0000 0000 0000 0000 0000 0000
0.0 0.0 0.0 0.0 0.0 0.0 0.0 0.0
0.0 0.0 0.0 0.0 0.0 0.0 0.0 0.0
0.0 0.0 0.0 0.0 0.0 0.0 0.0 0.0
0.0 0.0 0.0 0.0 0.0 0.0 0.0 0.0
0.0 0.0 0.0 0.0 0.0 0.0 0.0 0.0
0.0 0.0 0.0 0.0 0.0 0.0 0.0 0.0
0.0 0.0 0.0 0.0 0.0 0.0 0.0 0.0
0.0 0.0 0.0 0.0 0.0 0.0 0.0 0.0

layer2.1.running_var f4 [64]
00000000: 0000 803f 0000 803f 0000 803f 0000 803f
00000010: 0000 803f 0000 803f 0000 803f 0000 803f
00000020: 0000 803f 0000 803f 0000 803f 0000 803f
00000030: 0000 803f 0000 803f 0000 803f 0000 803f
00000040: 0000 803f 0000 803f 0000 803f 0000 803f
00000050: 0000 803f 0000 803f 0000 803f 0000 803f
00000060: 0000 803f 0000 803f 0000 803f 0000 803f
00000070: 0000 803f 0000 803f 0000 803f 0000 803f
00000080: 0000 803f 0000 803f 0000 803f 0000 803f
00000090: 0000 803f 0000 803f 0000 803f 0000 803f
000000a0: 0000 803f 0000 803f 0000 803f 0000 803f
000000b0: 0000 803f 0000 803f 0000 803f 0000 803f
000000c0: 0000 803f 0000 803f 0000 803f 0000 803f
000000d0: 0000 803f 0000 803f 0000 803f 0000 803f
000000e0: 0000 803f 0000 803f 0000 803f 0000 803f
000000f0: 0000 803f 0000 803f 0000 803f 0000 803f
1.0 1.0 1.0 1.0 1.0 1.0 1.0 1.0
1.0 1.0 1.0 1.0 1.0 1.0 1.0 1.0
1.0 1.0 1.0 1.0 1.0 1.0 1.0 1.0
1.0 1.0 1.0 1.0 1.0 1.0 1.0 1.0
1.0 1.0 1.0 1.0 1.0 1.0 1.0 1.0
1.0 1.0 1.0 1.0 1.0 1.0 1.0 1.0
1.0 1.0 1.0 1.0 1.0 1.0 1.0 1.0
1.0 1.0 1.0 1.0 1.0 1.0 1.0 1.0

layer3.0.weight f4 [32, 64]
00000000: 2f9d 03be 9574 d03d 493f 873e 6b7c 88be
00000010: 52ef 813e 90e0 8ebd 82e7 053f b062 debc
00000020: 1348 08bd 5d40 b33d 8670 28be ad2f d2be
00000030: dc21 e13b 7da5 71be 4c8b afbe c036 18be
00000040: 6167 9ebd 1744 dfbd e8b7 873e 34e1 333e
00000050: 184e acbd 6210 b53d e2f0 0c3e f6fa 86be
00000060: 7f17 993e b848 1bbd b61c e53d c461 9c3e
00000070: 9353 09be bfa4 ad3d 7a90 7e3e fc0c dbbc
00000080: 3877 833d 51bc 323e c9dd 68bd 9573 c4be
00000090: 0997 663d 83c7 91bd a7a7 ab3d 0335 77bd
000000a0: 4045 573e 397e 093e 43dc b2be be36 8ebd
000000b0: 5dcb 01be 81eb d5bd 2938 193e 492a 383e
000000c0: 777e 13be 03e1 19be 5c23 17be afae 4dbe
000000d0: a29d 12bd 7201 933d f619 373e b2e3 1d3e
000000e0: f835 60be 76ab 0abe 7049 fabc 8ab6 a1bd
000000f0: 2067 3b3d 3833 c8bd f68e 193e f288 fabe
00000100: 7274 a8bd 5e47 e63e 18be 933c e250 01be
00000110: e593 753e 1f51 f6bd 3e67 913e a536 313c
00000120: 4b0a fcbc 00e4 1e3d 709b 13be 78ea cebe
00000130: eef6 c8be f7fc 67be 9e4c 81be 80a9 33be
00000140: 7c81 12be 8c9c b0bc bd29 4a3e dcee 1a3d
00000150: d6ca 1e3e a334 853d 864f 053e 07b4 a9bc
00000160: 85ed a33e 8300 1abd 90db 6fbe fb6d ac3d
00000170: c6bd 083d c112 ae3d 11d6 d23b e516 2b3e
00000180: ad4f 28be 6496 983e 46a2 90bc fb25 a2be
00000190: 0e34 f43d f0b5 90bc bb38 063e 846e bb3d
000001a0: 98b1 953e 799b 883e 6a1b 81be 6a2a 983b
000001b0: 8d71 e2bd ca8e 19bd 8516 0f3e c349 c73c
000001c0: ba95 f9bd e823 a0bd 1dbd 2cbe 0cee 79be
000001d0: 1dad 093e a51f 863d 0ed5 3a3e bcf5 bc3c
000001e0: 445c 8a3c f4b5 18be 4f32 83bd ed45 8c3e
000001f0: 94db 3b3e 9d99 d23d da94 51bd 6969 83bd
00000200: 2b67 91bd aa09 7a3f 27f7 5cbe 19bd a4bd
00000210: c014 053c 547a bb3d 9eb5 f33e 5bd2 353e
00000220: 7485 5cbe d674 6a3e 410f 3cbd 8077 8bbe
00000230: 0f2e 813e 8d80 3fbe 1aef 703e b751 4cbe
00000240: 9666 e7be e518 7b3d da77 ad3d 55da e03d
00000250: 0fb7 2c3e 8489 733e 546b 113d 220d a2be
00000260: 2232 7bbc d097 8abd 0351 143e 5ca7 923e
00000270: 3aa5 0dbe 8521 203c 31f5 fe3c 47bb 08bd
00000280: 1056 db3d add2 c0bd 3379 e83d 11de b53b
00000290: b57c b2bd 92e5 c83d 8b85 9bbd e9ab 053e
000002a0: 8b78 ed3d dd1f 423e 2b04 d53b 4695 173b
000002b0: 3a34 0b3e 3ea9 c0bd cfbe 1dbe 7c02 46be
000002c0: 02bd b0bd c1cf 08be 9961 d53d e5da d33d
000002d0: 6f12 003e 23af 203e e81d 1b3e c0ae efbd
000002e0: 5322 b1be ea03 aabe c7d4 ac3e 1306 103f
000002f0: 494a a53e 763b 79be a559 963e 84fc ac3d
00000300: 62e2 353c c99d ecbe 6463 303e 9e6a 3f3b
00000310: 57c7 5d3e 6566 c3bd 7228 61be f785 113e
00000320: 3dc1 d83c 9b46 88be 030c 973d b1d8 673d
00000330: 4f90 c1be 26c7 823d 95af b83d c0d6 f83d
00000340: 3c16 acbe 2734 4f3e 0809 ba3e 5191 213d
00000350: faeb 043e 1014 703e ce49 243c 819c 2a3e
00000360: f12b abbe feb8 873e cb9d 83bb 4e62 7f3e
00000370: 2107 733e 4f63 eb3d 0592 af3e 6f03 d9bc
00000380: 33bb 19be 640f ed3c 5b0a 9d3d 4bdd 3cb9
00000390: 9ab7 5a3e fb04 2fbe 15e1 9a3d 7595 8dbd
000003a0: 0414 a33d c087 d7bd 2af2 a73d 6cc1 6e3d
000003b0: 87a6 2d3e 3b10 103f c4e2 3d3d 41a5 a83d
000003c0: 640d 013f 5470 8c3d af60 0a3e f83b 123f
000003d0: 2789 923d b589 a9be b725 a43e ef0b 463e
000003e0: 7217 693e c94c 09be e782 8e3d 2c3a 6f3d
000003f0: 219e 87bc 0671 8e3d 94a4 3a3e 430b ae3e
-0.1285293 0.10178486 0.2641547 -0.26657423 0.253779 -0.06976426 0.5230638 -0.027146667
-0.03327186 0.08752511 -0.16449174 -0.41052 0.0068704914 -0.23598285 -0.34285963 -0.14864635
-0.07734562 -0.10901659 0.26507497 0.17566377 -0.08413333 0.088410154 0.13763765 -0.26363343
0.2990074 -0.037911147 0.11187117 0.3054334 -0.13410787 0.084786884 0.24859801 -0.02673959
0.064192235 0.1745465 -0.056852136 -0.38369432 0.056296382 -0.07118132 0.083815865 -0.06035329
0.2102251 0.13427056 -0.3493367 -0.06944035 -0.12675233 -0.104453094 0.1496283 0.1798488
-0.14403711 -0.15027241 -0.14759582 -0.20086168 -0.03579486 0.0717801 0.17880997 0.1541889
-0.21895587 -0.1354197 -0.030552596 -0.07896145 0.045752645 -0.09775394 0.14995942 -0.48932606
-0.08225335 0.44976324 0.01803498 -0.1262851 0.23982199 -0.12027191 0.2839908 0.010816251
-0.030766627 0.038791656 -0.14414763 -0.4041326 -0.39250892 -0.22655092 -0.25253767 -0.17545128
-0.14307207 -0.021559022 0.19742484 0.03782545 0.15507063 0.0650418 0.13018617 -0.020715727
0.3201715 -0.037598144 -0.234236 0.084194146 0.033384107 0.08499671 0.00643421 0.16707952
-0.16436644 0.2980224 -0.017655503 -0.31669602 0.11923991 -0.01766488 0.13107578 0.091519386
0.29237056 0.26681116 -0.25216228 0.004643728 -0.11056814 -0.03748969 0.13973434 0.024327165
-0.12186761 -0.078193486 -0.16869016 -0.24407214 0.13444944 0.065490045 0.18245336 0.023066394
0.016889699 -0.1491316 -0.0640608 0.273971 0.18345481 0.10283206 -0.051167347 -0.0641659
-0.07099756 0.97670996 -0.21578656 -0.0804388 0.008122623 0.091541916 0.475995 0.17756025
-0.21535283 0.22896132 -0.045912985 -0.2723961 0.25230452 -0.18701382 0.2352871 -0.19953047
-0.45195454 0.06130304 0.084701255 0.109791435 0.16866706 0.23782927 0.035502747 -0.31650645
-0.015331777 -0.06767237 0.14484029 0.2864331 -0.1383256 0.009773617 0.031122776 -0.033381727
0.107097745 -0.09415183 0.11351242 0.005550154 -0.08715192 0.09809412 -0.07593831 0.1305386
0.11595257 0.18957467 0.006500741 0.0023129745 0.13594142 -0.094072804 -0.15404819 -0.19336885
-0.086298004 -0.13360502 0.10419006 0.10344485 0.12507032 0.1569181 0.15148127 -0.11703253
-0.345965 -0.3320611 0.33756086 0.5625927 0.32283238 -0.24339089 0.29365268 0.08446601
0.011101337 -0.4621413 0.17225415 0.0029207836 0.21658073 -0.095410146 -0.21988085 0.1421126
0.02645933 -0.26616368 0.07375338 0.056603137 -0.3780541 0.06385641 0.090178646 0.12150335
-0.33610713 0.20234738 0.36335015 0.039445225 0.12980643 0.23445153 0.010027362 0.16661264
-0.33431962 0.26508325 -0.004016613 0.24939844 0.23733188 0.11493551 0.34291092 -0.026490895
-0.15012817 0.028938003 0.07667991 -0.00018011515 0.21359101 -0.17091744 0.07562462 -0.06913272
0.07962802 -0.10523939 0.08200486 0.05828993 0.16958056 0.56274766 0.04635884 0.08234645
0.5041106 0.068573624 0.13513444 0.57122755 0.07155066 -0.33112875 0.32060024 0.1934049
0.2276285 -0.13408197 0.069585614 0.058405086 -0.016554894 0.06955151 0.18226844 0.33992967

layer3.0.bias f4 [32]
00000000: 5da4 323e 564f 5a3d 8221 d7bd b8c8 85be
00000010: c726 03be f494 033e 4830 4a3d 778a be3c
00000020: aa1f 283e 0de4 893e bdf5 35be 0b27 aa3c
00000030: 88c4 513e 3b8c 653e db6b 823e 2b3d 17bd
00000040: 9993 8a3d b4fe 533e 944b 8c3e 79d5 5d3c
00000050: 5a9f 8a3e 7a43 04be 5d3c 943e bfec 103d
00000060: 2761 28be ad72 9a3d fcfd 893e 67f0 80bc
00000070: 75e8 e33d 778b 0e3e 536c 1a3e 0f02 d2bc
0.17445512 0.053298317 -0.10504438 -0.261297 -0.12807761 0.1284979 0.04936245 0.023259385
0.16418329 0.269318 -0.17769523 0.02077057 0.20485127 0.22416775 0.25472912 -0.03692357
0.06766433 0.2070263 0.27401412 0.013539665 0.270747 -0.12916365 0.28952304 0.03538203
-0.1644331 0.07541404 0.26951587 -0.015739633 0.11128322 0.13920389 0.15080385 -0.025635747

layer3.1.weight f4 [32]
00000000: 3d6d 8a3f e06f 813f 80d8 b53f 039e 8f3f
00000010: 1aec 9c3f 2431 863f 100a af3f bb5d ba3f
00000020: 6a8c 823f 04cd 893f 4b8b 9b3f 4bae af3f
00000030: 8a26 963f 9e53 aa3f ded8 713f 7e6b 8c3f
00000040: 79ff a73f 3b94 923f 03bd 873f 1053 8e3f
00000050: 6610 963f 1b6b 973f 6bf4 bc3f e98f 963f
00000060: 0e65 933f 33e3 9d3f 2aaf 8f3f ce29 a93f
00000070: 4073 963f 5375 7b3f 9f8c c73f 5b8c 993f
1.0814587 1.0112267 1.4206696 1.1220096 1.2259552 1.0483747 1.3674946 1.4559854
1.0199101 1.0765691 1.2151884 1.3725065 1.1730511 1.3306768 0.9447154 1.0970304
1.3124839 1.1451486 1.0604557 1.1119099 1.1723754 1.1829561 1.476209 1.1762668
1.1515214 1.2334961 1.1225331 1.3215883 1.1753922 0.982259 1.5589789 1.1995958

layer3.1.bias f4 [32]
00000000: e5b6 833e d746 3d3e f150 7fbd 65a0 17be
00000010: 4ed1 d5bc 3282 853d 9b08 c43d 5148 343d
00000020: f61f 143e 6336 363e 930d 0fbe c902 b43d
00000030: 6bd0 7f3e 2a53 dc3d a62e 513e 35f9 08be
00000040: 5189 d53d 6f6e d53d aacd 533e 9629 0e3d
00000050: bcd4 8a3e e8e0 a9bd 7d23 363e aa08 223d
00000060: f7cb e7bd bb46 b53d 29f5 7f3e a399 d43d
00000070: 200f 763e 8811 583e bc03 383e 3f33 a73d
0.25725475 0.18484055 -0.06233305 -0.1480728 -0.02610078 0.065189734 0.09571954 0.04401428
0.14465317 0.17794184 -0.13970022 0.08789594 0.24981849 0.1075805 0.20427951 -0.13376315
0.10426582 0.10421454 0.20683923 0.03470763 0.27115428 -0.082948506 0.17786975 0.039559044
-0.113182 0.088513814 0.24995865 0.103808664 0.24029207 0.21100438 0.17970175 0.08164071

layer3.1.running_mean f4 [32]
00000000: 0000 0000 0000 0000 0000 0000 0000 0000
00000010: 0000 0000 0000 0000 0000 0000 0000 0000
00000020: 0000 0000 0000 0000 0000 0000 0000 0000
00000030: 0000 0000 0000 0000 0000 0000 0000 0000
00000040: 0000 0000 0000 0000 0000 0000 0000 0000
00000050: 0000 0000 0000 0000 0000 0000 0000 0000
00000060: 0000 0000 0000 0000 0000 0000 0000 0000
00000070: 0000 0000 0000 0000 0000 0000 0000 0000
0.0 0.0 0.0 0.0 0.0 0.0 0.0 0.0
0.0 0.0 0.0 0.0 0.0 0.0 0.0 0.0
0.0 0.0 0.0 0.0 0.0 0.0 0.0 0.0
0.0 0.0 0.0 0.0 0.0 0.0 0.0 0.0

layer3.1.running_var f4 [32]
00000000: 0000 803f 0000 803f 0000 803f 0000 803f
00000010: 0000 803f 0000 803f 0000 803f 0000 803f
00000020: 0000 803f 0000 803f 0000 803f 0000 803f
00000030: 0000 803f 0000 803f 0000 803f 0000 803f
00000040: 0000 803f 0000 803f 0000 803f 0000 803f
00000050: 0000 803f 0000 803f 0000 803f 0000 803f
00000060: 0000 803f 0000 803f 0000 803f 0000 803f
00000070: 0000 803f 0000 803f 0000 803f 0000 803f
1.0 1.0 1.0 1.0 1.0 1.0 1.0 1.0
1.0 1.0 1.0 1.0 1.0 1.0 1.0 1.0
1.0 1.0 1.0 1.0 1.0 1.0 1.0 1.0
1.0 1.0 1.0 1.0 1.0 1.0 1.0 1.0

output.weight f4 [2, 32]
00000000: 3c0e 59be 61cf 05be f181 22bf 577c 9e3e
00000010: 2b36 a53e 0a5c 91be b4d4 ff3e e9ae dcbe
00000020: 8332 2ebe d3ba 5abe 6e70 583e 38c1 803e
00000030: 9cff b4be e38a d33e c20c 23be 1460 983e
00000040: 9c0b de3e e2f7 a43e fb7d 8fbe a6a2 0d3e
00000050: 7923 aebe 8f0c 3d3e 0a2e f9be 8d78 9c3e
00000060: 1c6e e83d a9c1 8b3e 248e 81be 78a6 8a3e
00000070: 5a7f b6be 63f7 34be 3e3c 113f e9f8 bebe
00000080: dbcc 4b3e c687 233e 6a80 a93e fb83 4cbe
00000090: 9466 6bbe b5ea 57bc 8343 e3be 47fd 0a3f
000000a0: b089 d73d 89a5 793e ac2a c9be 7a67 e5be
000000b0: e3c7 a83e 7b02 55be e6ca 913d aaad 8cbe
000000c0: 96f7 61be 6664 48be 58d0 963d 9e67 29be
000000d0: b91e 6a3e 7823 c3be 0650 f23e 018d e3bd
000000e0: 4276 c1be ba54 9cbe beab 493e 9e4e edbe
000000f0: 2826 ba3e f475 1a3e 28fb 18bf dbe2 803e
-0.21196836 -0.1306739 -0.63479525 0.3095424 0.3226789 -0.28390533 0.49966967 -0.43102196
-0.17011456 -0.2136033 0.21136639 0.25147414 -0.35351264 0.413169 -0.15922835 0.29760802
0.43368232 0.3222037 -0.28025803 0.13831577 -0.34011438 0.18461822 -0.48667938 0.30560723
0.11349127 0.27296188 -0.25303757 0.2708013 -0.35644037 -0.17672496 0.5673255 -0.37299278
0.19902365 0.15969762 0.33105785 -0.19972222 -0.22988349 -0.013178517 -0.44387445 0.5429272
0.10524309 0.24379553 -0.3929037 -0.4480551 0.32965 -0.20801727 0.07118778 -0.27476245
-0.22067103 -0.19569549 0.07363957 -0.16543433 0.22863282 -0.38112998 0.47326678 -0.11110879
-0.37785536 -0.3053339 0.1969442 -0.46349043 0.36357236 0.15084058 -0.59758234 0.25173077

output.bias f4 [2]
00000000: 7901 093e 49da 123e
0.13379468 0.14341082
